…
2024-08-14 16:01:58.813178: W tensorflow/compiler/tf2tensorrt/utils/py_utils.cc:38] TF-TRT Warning: Could not find TensorRT
1 Physical GPUs, 1 Logical GPUs
Build model ...
2024-08-14 16:02:01.274824: I tensorflow/core/common_runtime/gpu/gpu_device.cc:2021] Created device /job:localhost/replica:0/task:0/device:GPU:0 with 79184 MB memory:  -> device: 0, name: NVIDIA A100-SXM4-80GB, pci bus id: 0000:01:00.0, compute capability: 8.0
Model: "functional"
┏━━━━━━━━━━━━━━━━━━━━━━━━━━━━━━━━━┳━━━━━━━━━━━━━━━━━━━━━━━━┳━━━━━━━━━━━━━━━┓
┃ Layer (type)                    ┃ Output Shape           ┃       Param # ┃
┡━━━━━━━━━━━━━━━━━━━━━━━━━━━━━━━━━╇━━━━━━━━━━━━━━━━━━━━━━━━╇━━━━━━━━━━━━━━━┩
│ input_layer (InputLayer)        │ (None, 100, 100, 3)    │             0 │
├─────────────────────────────────┼────────────────────────┼───────────────┤
│ conv2d (Conv2D)                 │ (None, 100, 100, 64)   │         1,792 │
├─────────────────────────────────┼────────────────────────┼───────────────┤
│ batch_normalization             │ (None, 100, 100, 64)   │           256 │
│ (BatchNormalization)            │                        │               │
├─────────────────────────────────┼────────────────────────┼───────────────┤
│ conv2d_1 (Conv2D)               │ (None, 100, 100, 64)   │        36,928 │
├─────────────────────────────────┼────────────────────────┼───────────────┤
│ batch_normalization_1           │ (None, 100, 100, 64)   │           256 │
│ (BatchNormalization)            │                        │               │
├─────────────────────────────────┼────────────────────────┼───────────────┤
│ conv2d_2 (Conv2D)               │ (None, 100, 100, 64)   │        36,928 │
├─────────────────────────────────┼────────────────────────┼───────────────┤
│ batch_normalization_2           │ (None, 100, 100, 64)   │           256 │
│ (BatchNormalization)            │                        │               │
├─────────────────────────────────┼────────────────────────┼───────────────┤
│ conv2d_3 (Conv2D)               │ (None, 100, 100, 64)   │        36,928 │
├─────────────────────────────────┼────────────────────────┼───────────────┤
│ batch_normalization_3           │ (None, 100, 100, 64)   │           256 │
│ (BatchNormalization)            │                        │               │
├─────────────────────────────────┼────────────────────────┼───────────────┤
│ conv2d_4 (Conv2D)               │ (None, 100, 100, 64)   │        36,928 │
├─────────────────────────────────┼────────────────────────┼───────────────┤
│ batch_normalization_4           │ (None, 100, 100, 64)   │           256 │
│ (BatchNormalization)            │                        │               │
├─────────────────────────────────┼────────────────────────┼───────────────┤
│ conv2d_5 (Conv2D)               │ (None, 100, 100, 64)   │        36,928 │
├─────────────────────────────────┼────────────────────────┼───────────────┤
│ batch_normalization_5           │ (None, 100, 100, 64)   │           256 │
│ (BatchNormalization)            │                        │               │
├─────────────────────────────────┼────────────────────────┼───────────────┤
│ conv2d_6 (Conv2D)               │ (None, 100, 100, 64)   │        36,928 │
├─────────────────────────────────┼────────────────────────┼───────────────┤
│ batch_normalization_6           │ (None, 100, 100, 64)   │           256 │
│ (BatchNormalization)            │                        │               │
├─────────────────────────────────┼────────────────────────┼───────────────┤
│ conv2d_7 (Conv2D)               │ (None, 100, 100, 64)   │        36,928 │
├─────────────────────────────────┼────────────────────────┼───────────────┤
│ batch_normalization_7           │ (None, 100, 100, 64)   │           256 │
│ (BatchNormalization)            │                        │               │
├─────────────────────────────────┼────────────────────────┼───────────────┤
│ conv2d_8 (Conv2D)               │ (None, 100, 100, 64)   │        36,928 │
├─────────────────────────────────┼────────────────────────┼───────────────┤
│ batch_normalization_8           │ (None, 100, 100, 64)   │           256 │
│ (BatchNormalization)            │                        │               │
├─────────────────────────────────┼────────────────────────┼───────────────┤
│ conv2d_9 (Conv2D)               │ (None, 100, 100, 64)   │        36,928 │
├─────────────────────────────────┼────────────────────────┼───────────────┤
│ batch_normalization_9           │ (None, 100, 100, 64)   │           256 │
│ (BatchNormalization)            │                        │               │
├─────────────────────────────────┼────────────────────────┼───────────────┤
│ conv2d_10 (Conv2D)              │ (None, 100, 100, 64)   │        36,928 │
├─────────────────────────────────┼────────────────────────┼───────────────┤
│ batch_normalization_10          │ (None, 100, 100, 64)   │           256 │
│ (BatchNormalization)            │                        │               │
├─────────────────────────────────┼────────────────────────┼───────────────┤
│ conv2d_11 (Conv2D)              │ (None, 100, 100, 64)   │        36,928 │
├─────────────────────────────────┼────────────────────────┼───────────────┤
│ batch_normalization_11          │ (None, 100, 100, 64)   │           256 │
│ (BatchNormalization)            │                        │               │
├─────────────────────────────────┼────────────────────────┼───────────────┤
│ conv2d_12 (Conv2D)              │ (None, 100, 100, 64)   │        36,928 │
├─────────────────────────────────┼────────────────────────┼───────────────┤
│ batch_normalization_12          │ (None, 100, 100, 64)   │           256 │
│ (BatchNormalization)            │                        │               │
├─────────────────────────────────┼────────────────────────┼───────────────┤
│ conv2d_13 (Conv2D)              │ (None, 100, 100, 64)   │        36,928 │
├─────────────────────────────────┼────────────────────────┼───────────────┤
│ batch_normalization_13          │ (None, 100, 100, 64)   │           256 │
│ (BatchNormalization)            │                        │               │
├─────────────────────────────────┼────────────────────────┼───────────────┤
│ conv2d_14 (Conv2D)              │ (None, 100, 100, 64)   │        36,928 │
├─────────────────────────────────┼────────────────────────┼───────────────┤
│ batch_normalization_14          │ (None, 100, 100, 64)   │           256 │
│ (BatchNormalization)            │                        │               │
├─────────────────────────────────┼────────────────────────┼───────────────┤
│ conv2d_15 (Conv2D)              │ (None, 100, 100, 64)   │        36,928 │
├─────────────────────────────────┼────────────────────────┼───────────────┤
│ batch_normalization_15          │ (None, 100, 100, 64)   │           256 │
│ (BatchNormalization)            │                        │               │
├─────────────────────────────────┼────────────────────────┼───────────────┤
│ conv2d_16 (Conv2D)              │ (None, 100, 100, 64)   │        36,928 │
├─────────────────────────────────┼────────────────────────┼───────────────┤
│ batch_normalization_16          │ (None, 100, 100, 64)   │           256 │
│ (BatchNormalization)            │                        │               │
├─────────────────────────────────┼────────────────────────┼───────────────┤
│ conv2d_17 (Conv2D)              │ (None, 100, 100, 64)   │        36,928 │
├─────────────────────────────────┼────────────────────────┼───────────────┤
│ batch_normalization_17          │ (None, 100, 100, 64)   │           256 │
│ (BatchNormalization)            │                        │               │
├─────────────────────────────────┼────────────────────────┼───────────────┤
│ conv2d_18 (Conv2D)              │ (None, 100, 100, 64)   │        36,928 │
├─────────────────────────────────┼────────────────────────┼───────────────┤
│ batch_normalization_18          │ (None, 100, 100, 64)   │           256 │
│ (BatchNormalization)            │                        │               │
├─────────────────────────────────┼────────────────────────┼───────────────┤
│ conv2d_19 (Conv2D)              │ (None, 100, 100, 64)   │        36,928 │
├─────────────────────────────────┼────────────────────────┼───────────────┤
│ batch_normalization_19          │ (None, 100, 100, 64)   │           256 │
│ (BatchNormalization)            │                        │               │
├─────────────────────────────────┼────────────────────────┼───────────────┤
│ conv2d_20 (Conv2D)              │ (None, 100, 100, 64)   │        36,928 │
├─────────────────────────────────┼────────────────────────┼───────────────┤
│ batch_normalization_20          │ (None, 100, 100, 64)   │           256 │
│ (BatchNormalization)            │                        │               │
├─────────────────────────────────┼────────────────────────┼───────────────┤
│ conv2d_21 (Conv2D)              │ (None, 100, 100, 64)   │        36,928 │
├─────────────────────────────────┼────────────────────────┼───────────────┤
│ batch_normalization_21          │ (None, 100, 100, 64)   │           256 │
│ (BatchNormalization)            │                        │               │
├─────────────────────────────────┼────────────────────────┼───────────────┤
│ conv2d_22 (Conv2D)              │ (None, 100, 100, 64)   │        36,928 │
├─────────────────────────────────┼────────────────────────┼───────────────┤
│ batch_normalization_22          │ (None, 100, 100, 64)   │           256 │
│ (BatchNormalization)            │                        │               │
├─────────────────────────────────┼────────────────────────┼───────────────┤
│ conv2d_23 (Conv2D)              │ (None, 100, 100, 64)   │        36,928 │
├─────────────────────────────────┼────────────────────────┼───────────────┤
│ batch_normalization_23          │ (None, 100, 100, 64)   │           256 │
│ (BatchNormalization)            │                        │               │
├─────────────────────────────────┼────────────────────────┼───────────────┤
│ conv2d_24 (Conv2D)              │ (None, 100, 100, 64)   │        36,928 │
├─────────────────────────────────┼────────────────────────┼───────────────┤
│ batch_normalization_24          │ (None, 100, 100, 64)   │           256 │
│ (BatchNormalization)            │                        │               │
├─────────────────────────────────┼────────────────────────┼───────────────┤
│ conv2d_25 (Conv2D)              │ (None, 100, 100, 64)   │        36,928 │
├─────────────────────────────────┼────────────────────────┼───────────────┤
│ batch_normalization_25          │ (None, 100, 100, 64)   │           256 │
│ (BatchNormalization)            │                        │               │
├─────────────────────────────────┼────────────────────────┼───────────────┤
│ conv2d_26 (Conv2D)              │ (None, 100, 100, 64)   │        36,928 │
├─────────────────────────────────┼────────────────────────┼───────────────┤
│ batch_normalization_26          │ (None, 100, 100, 64)   │           256 │
│ (BatchNormalization)            │                        │               │
├─────────────────────────────────┼────────────────────────┼───────────────┤
│ conv2d_27 (Conv2D)              │ (None, 100, 100, 64)   │        36,928 │
├─────────────────────────────────┼────────────────────────┼───────────────┤
│ batch_normalization_27          │ (None, 100, 100, 64)   │           256 │
│ (BatchNormalization)            │                        │               │
├─────────────────────────────────┼────────────────────────┼───────────────┤
│ conv2d_28 (Conv2D)              │ (None, 100, 100, 64)   │        36,928 │
├─────────────────────────────────┼────────────────────────┼───────────────┤
│ batch_normalization_28          │ (None, 100, 100, 64)   │           256 │
│ (BatchNormalization)            │                        │               │
├─────────────────────────────────┼────────────────────────┼───────────────┤
│ conv2d_29 (Conv2D)              │ (None, 100, 100, 64)   │        36,928 │
├─────────────────────────────────┼────────────────────────┼───────────────┤
│ batch_normalization_29          │ (None, 100, 100, 64)   │           256 │
│ (BatchNormalization)            │                        │               │
├─────────────────────────────────┼────────────────────────┼───────────────┤
│ conv2d_30 (Conv2D)              │ (None, 100, 100, 64)   │        36,928 │
├─────────────────────────────────┼────────────────────────┼───────────────┤
│ batch_normalization_30          │ (None, 100, 100, 64)   │           256 │
│ (BatchNormalization)            │                        │               │
├─────────────────────────────────┼────────────────────────┼───────────────┤
│ conv2d_31 (Conv2D)              │ (None, 100, 100, 64)   │        36,928 │
├─────────────────────────────────┼────────────────────────┼───────────────┤
│ batch_normalization_31          │ (None, 100, 100, 64)   │           256 │
│ (BatchNormalization)            │                        │               │
├─────────────────────────────────┼────────────────────────┼───────────────┤
│ conv2d_32 (Conv2D)              │ (None, 100, 100, 64)   │        36,928 │
├─────────────────────────────────┼────────────────────────┼───────────────┤
│ batch_normalization_32          │ (None, 100, 100, 64)   │           256 │
│ (BatchNormalization)            │                        │               │
├─────────────────────────────────┼────────────────────────┼───────────────┤
│ conv2d_33 (Conv2D)              │ (None, 100, 100, 64)   │        36,928 │
├─────────────────────────────────┼────────────────────────┼───────────────┤
│ batch_normalization_33          │ (None, 100, 100, 64)   │           256 │
│ (BatchNormalization)            │                        │               │
├─────────────────────────────────┼────────────────────────┼───────────────┤
│ conv2d_34 (Conv2D)              │ (None, 100, 100, 64)   │        36,928 │
├─────────────────────────────────┼────────────────────────┼───────────────┤
│ batch_normalization_34          │ (None, 100, 100, 64)   │           256 │
│ (BatchNormalization)            │                        │               │
├─────────────────────────────────┼────────────────────────┼───────────────┤
│ conv2d_35 (Conv2D)              │ (None, 100, 100, 64)   │        36,928 │
├─────────────────────────────────┼────────────────────────┼───────────────┤
│ batch_normalization_35          │ (None, 100, 100, 64)   │           256 │
│ (BatchNormalization)            │                        │               │
├─────────────────────────────────┼────────────────────────┼───────────────┤
│ conv2d_36 (Conv2D)              │ (None, 100, 100, 64)   │        36,928 │
├─────────────────────────────────┼────────────────────────┼───────────────┤
│ batch_normalization_36          │ (None, 100, 100, 64)   │           256 │
│ (BatchNormalization)            │                        │               │
├─────────────────────────────────┼────────────────────────┼───────────────┤
│ conv2d_37 (Conv2D)              │ (None, 100, 100, 64)   │        36,928 │
├─────────────────────────────────┼────────────────────────┼───────────────┤
│ batch_normalization_37          │ (None, 100, 100, 64)   │           256 │
│ (BatchNormalization)            │                        │               │
├─────────────────────────────────┼────────────────────────┼───────────────┤
│ conv2d_38 (Conv2D)              │ (None, 100, 100, 64)   │        36,928 │
├─────────────────────────────────┼────────────────────────┼───────────────┤
│ batch_normalization_38          │ (None, 100, 100, 64)   │           256 │
│ (BatchNormalization)            │                        │               │
├─────────────────────────────────┼────────────────────────┼───────────────┤
│ conv2d_39 (Conv2D)              │ (None, 100, 100, 64)   │        36,928 │
├─────────────────────────────────┼────────────────────────┼───────────────┤
│ batch_normalization_39          │ (None, 100, 100, 64)   │           256 │
│ (BatchNormalization)            │                        │               │
├─────────────────────────────────┼────────────────────────┼───────────────┤
│ conv2d_40 (Conv2D)              │ (None, 100, 100, 64)   │        36,928 │
├─────────────────────────────────┼────────────────────────┼───────────────┤
│ batch_normalization_40          │ (None, 100, 100, 64)   │           256 │
│ (BatchNormalization)            │                        │               │
├─────────────────────────────────┼────────────────────────┼───────────────┤
│ conv2d_41 (Conv2D)              │ (None, 100, 100, 64)   │        36,928 │
├─────────────────────────────────┼────────────────────────┼───────────────┤
│ batch_normalization_41          │ (None, 100, 100, 64)   │           256 │
│ (BatchNormalization)            │                        │               │
├─────────────────────────────────┼────────────────────────┼───────────────┤
│ conv2d_42 (Conv2D)              │ (None, 100, 100, 64)   │        36,928 │
├─────────────────────────────────┼────────────────────────┼───────────────┤
│ batch_normalization_42          │ (None, 100, 100, 64)   │           256 │
│ (BatchNormalization)            │                        │               │
├─────────────────────────────────┼────────────────────────┼───────────────┤
│ conv2d_43 (Conv2D)              │ (None, 100, 100, 64)   │        36,928 │
├─────────────────────────────────┼────────────────────────┼───────────────┤
│ batch_normalization_43          │ (None, 100, 100, 64)   │           256 │
│ (BatchNormalization)            │                        │               │
├─────────────────────────────────┼────────────────────────┼───────────────┤
│ conv2d_44 (Conv2D)              │ (None, 100, 100, 64)   │        36,928 │
├─────────────────────────────────┼────────────────────────┼───────────────┤
│ batch_normalization_44          │ (None, 100, 100, 64)   │           256 │
│ (BatchNormalization)            │                        │               │
├─────────────────────────────────┼────────────────────────┼───────────────┤
│ conv2d_45 (Conv2D)              │ (None, 100, 100, 64)   │        36,928 │
├─────────────────────────────────┼────────────────────────┼───────────────┤
│ batch_normalization_45          │ (None, 100, 100, 64)   │           256 │
│ (BatchNormalization)            │                        │               │
├─────────────────────────────────┼────────────────────────┼───────────────┤
│ conv2d_46 (Conv2D)              │ (None, 100, 100, 64)   │        36,928 │
├─────────────────────────────────┼────────────────────────┼───────────────┤
│ batch_normalization_46          │ (None, 100, 100, 64)   │           256 │
│ (BatchNormalization)            │                        │               │
├─────────────────────────────────┼────────────────────────┼───────────────┤
│ conv2d_47 (Conv2D)              │ (None, 100, 100, 64)   │        36,928 │
├─────────────────────────────────┼────────────────────────┼───────────────┤
│ batch_normalization_47          │ (None, 100, 100, 64)   │           256 │
│ (BatchNormalization)            │                        │               │
├─────────────────────────────────┼────────────────────────┼───────────────┤
│ conv2d_48 (Conv2D)              │ (None, 100, 100, 64)   │        36,928 │
├─────────────────────────────────┼────────────────────────┼───────────────┤
│ batch_normalization_48          │ (None, 100, 100, 64)   │           256 │
│ (BatchNormalization)            │                        │               │
├─────────────────────────────────┼────────────────────────┼───────────────┤
│ conv2d_49 (Conv2D)              │ (None, 100, 100, 64)   │        36,928 │
├─────────────────────────────────┼────────────────────────┼───────────────┤
│ batch_normalization_49          │ (None, 100, 100, 64)   │           256 │
│ (BatchNormalization)            │                        │               │
├─────────────────────────────────┼────────────────────────┼───────────────┤
│ conv2d_50 (Conv2D)              │ (None, 100, 100, 64)   │        36,928 │
├─────────────────────────────────┼────────────────────────┼───────────────┤
│ batch_normalization_50          │ (None, 100, 100, 64)   │           256 │
│ (BatchNormalization)            │                        │               │
├─────────────────────────────────┼────────────────────────┼───────────────┤
│ conv2d_51 (Conv2D)              │ (None, 100, 100, 64)   │        36,928 │
├─────────────────────────────────┼────────────────────────┼───────────────┤
│ batch_normalization_51          │ (None, 100, 100, 64)   │           256 │
│ (BatchNormalization)            │                        │               │
├─────────────────────────────────┼────────────────────────┼───────────────┤
│ conv2d_52 (Conv2D)              │ (None, 100, 100, 64)   │        36,928 │
├─────────────────────────────────┼────────────────────────┼───────────────┤
│ batch_normalization_52          │ (None, 100, 100, 64)   │           256 │
│ (BatchNormalization)            │                        │               │
├─────────────────────────────────┼────────────────────────┼───────────────┤
│ conv2d_53 (Conv2D)              │ (None, 100, 100, 64)   │        36,928 │
├─────────────────────────────────┼────────────────────────┼───────────────┤
│ batch_normalization_53          │ (None, 100, 100, 64)   │           256 │
│ (BatchNormalization)            │                        │               │
├─────────────────────────────────┼────────────────────────┼───────────────┤
│ conv2d_54 (Conv2D)              │ (None, 100, 100, 64)   │        36,928 │
├─────────────────────────────────┼────────────────────────┼───────────────┤
│ batch_normalization_54          │ (None, 100, 100, 64)   │           256 │
│ (BatchNormalization)            │                        │               │
├─────────────────────────────────┼────────────────────────┼───────────────┤
│ conv2d_55 (Conv2D)              │ (None, 100, 100, 64)   │        36,928 │
├─────────────────────────────────┼────────────────────────┼───────────────┤
│ batch_normalization_55          │ (None, 100, 100, 64)   │           256 │
│ (BatchNormalization)            │                        │               │
├─────────────────────────────────┼────────────────────────┼───────────────┤
│ conv2d_56 (Conv2D)              │ (None, 100, 100, 64)   │        36,928 │
├─────────────────────────────────┼────────────────────────┼───────────────┤
│ batch_normalization_56          │ (None, 100, 100, 64)   │           256 │
│ (BatchNormalization)            │                        │               │
├─────────────────────────────────┼────────────────────────┼───────────────┤
│ conv2d_57 (Conv2D)              │ (None, 100, 100, 64)   │        36,928 │
├─────────────────────────────────┼────────────────────────┼───────────────┤
│ batch_normalization_57          │ (None, 100, 100, 64)   │           256 │
│ (BatchNormalization)            │                        │               │
├─────────────────────────────────┼────────────────────────┼───────────────┤
│ conv2d_58 (Conv2D)              │ (None, 100, 100, 64)   │        36,928 │
├─────────────────────────────────┼────────────────────────┼───────────────┤
│ batch_normalization_58          │ (None, 100, 100, 64)   │           256 │
│ (BatchNormalization)            │                        │               │
├─────────────────────────────────┼────────────────────────┼───────────────┤
│ conv2d_59 (Conv2D)              │ (None, 100, 100, 64)   │        36,928 │
├─────────────────────────────────┼────────────────────────┼───────────────┤
│ batch_normalization_59          │ (None, 100, 100, 64)   │           256 │
│ (BatchNormalization)            │                        │               │
├─────────────────────────────────┼────────────────────────┼───────────────┤
│ conv2d_60 (Conv2D)              │ (None, 100, 100, 64)   │        36,928 │
├─────────────────────────────────┼────────────────────────┼───────────────┤
│ batch_normalization_60          │ (None, 100, 100, 64)   │           256 │
│ (BatchNormalization)            │                        │               │
├─────────────────────────────────┼────────────────────────┼───────────────┤
│ conv2d_61 (Conv2D)              │ (None, 100, 100, 64)   │        36,928 │
├─────────────────────────────────┼────────────────────────┼───────────────┤
│ batch_normalization_61          │ (None, 100, 100, 64)   │           256 │
│ (BatchNormalization)            │                        │               │
├─────────────────────────────────┼────────────────────────┼───────────────┤
│ conv2d_62 (Conv2D)              │ (None, 100, 100, 64)   │        36,928 │
├─────────────────────────────────┼────────────────────────┼───────────────┤
│ batch_normalization_62          │ (None, 100, 100, 64)   │           256 │
│ (BatchNormalization)            │                        │               │
├─────────────────────────────────┼────────────────────────┼───────────────┤
│ conv2d_63 (Conv2D)              │ (None, 100, 100, 64)   │        36,928 │
├─────────────────────────────────┼────────────────────────┼───────────────┤
│ batch_normalization_63          │ (None, 100, 100, 64)   │           256 │
│ (BatchNormalization)            │                        │               │
├─────────────────────────────────┼────────────────────────┼───────────────┤
│ conv2d_64 (Conv2D)              │ (None, 100, 100, 64)   │        36,928 │
├─────────────────────────────────┼────────────────────────┼───────────────┤
│ batch_normalization_64          │ (None, 100, 100, 64)   │           256 │
│ (BatchNormalization)            │                        │               │
├─────────────────────────────────┼────────────────────────┼───────────────┤
│ conv2d_65 (Conv2D)              │ (None, 100, 100, 64)   │        36,928 │
├─────────────────────────────────┼────────────────────────┼───────────────┤
│ batch_normalization_65          │ (None, 100, 100, 64)   │           256 │
│ (BatchNormalization)            │                        │               │
├─────────────────────────────────┼────────────────────────┼───────────────┤
│ conv2d_66 (Conv2D)              │ (None, 100, 100, 64)   │        36,928 │
├─────────────────────────────────┼────────────────────────┼───────────────┤
│ batch_normalization_66          │ (None, 100, 100, 64)   │           256 │
│ (BatchNormalization)            │                        │               │
├─────────────────────────────────┼────────────────────────┼───────────────┤
│ conv2d_67 (Conv2D)              │ (None, 100, 100, 64)   │        36,928 │
├─────────────────────────────────┼────────────────────────┼───────────────┤
│ batch_normalization_67          │ (None, 100, 100, 64)   │           256 │
│ (BatchNormalization)            │                        │               │
├─────────────────────────────────┼────────────────────────┼───────────────┤
│ conv2d_68 (Conv2D)              │ (None, 100, 100, 64)   │        36,928 │
├─────────────────────────────────┼────────────────────────┼───────────────┤
│ batch_normalization_68          │ (None, 100, 100, 64)   │           256 │
│ (BatchNormalization)            │                        │               │
├─────────────────────────────────┼────────────────────────┼───────────────┤
│ conv2d_69 (Conv2D)              │ (None, 100, 100, 64)   │        36,928 │
├─────────────────────────────────┼────────────────────────┼───────────────┤
│ batch_normalization_69          │ (None, 100, 100, 64)   │           256 │
│ (BatchNormalization)            │                        │               │
├─────────────────────────────────┼────────────────────────┼───────────────┤
│ conv2d_70 (Conv2D)              │ (None, 100, 100, 64)   │        36,928 │
├─────────────────────────────────┼────────────────────────┼───────────────┤
│ batch_normalization_70          │ (None, 100, 100, 64)   │           256 │
│ (BatchNormalization)            │                        │               │
├─────────────────────────────────┼────────────────────────┼───────────────┤
│ conv2d_71 (Conv2D)              │ (None, 100, 100, 64)   │        36,928 │
├─────────────────────────────────┼────────────────────────┼───────────────┤
│ batch_normalization_71          │ (None, 100, 100, 64)   │           256 │
│ (BatchNormalization)            │                        │               │
├─────────────────────────────────┼────────────────────────┼───────────────┤
│ conv2d_72 (Conv2D)              │ (None, 100, 100, 64)   │        36,928 │
├─────────────────────────────────┼────────────────────────┼───────────────┤
│ batch_normalization_72          │ (None, 100, 100, 64)   │           256 │
│ (BatchNormalization)            │                        │               │
├─────────────────────────────────┼────────────────────────┼───────────────┤
│ conv2d_73 (Conv2D)              │ (None, 100, 100, 64)   │        36,928 │
├─────────────────────────────────┼────────────────────────┼───────────────┤
│ batch_normalization_73          │ (None, 100, 100, 64)   │           256 │
│ (BatchNormalization)            │                        │               │
├─────────────────────────────────┼────────────────────────┼───────────────┤
│ conv2d_74 (Conv2D)              │ (None, 100, 100, 64)   │        36,928 │
├─────────────────────────────────┼────────────────────────┼───────────────┤
│ batch_normalization_74          │ (None, 100, 100, 64)   │           256 │
│ (BatchNormalization)            │                        │               │
├─────────────────────────────────┼────────────────────────┼───────────────┤
│ conv2d_75 (Conv2D)              │ (None, 100, 100, 64)   │        36,928 │
├─────────────────────────────────┼────────────────────────┼───────────────┤
│ batch_normalization_75          │ (None, 100, 100, 64)   │           256 │
│ (BatchNormalization)            │                        │               │
├─────────────────────────────────┼────────────────────────┼───────────────┤
│ conv2d_76 (Conv2D)              │ (None, 100, 100, 64)   │        36,928 │
├─────────────────────────────────┼────────────────────────┼───────────────┤
│ batch_normalization_76          │ (None, 100, 100, 64)   │           256 │
│ (BatchNormalization)            │                        │               │
├─────────────────────────────────┼────────────────────────┼───────────────┤
│ conv2d_77 (Conv2D)              │ (None, 100, 100, 64)   │        36,928 │
├─────────────────────────────────┼────────────────────────┼───────────────┤
│ batch_normalization_77          │ (None, 100, 100, 64)   │           256 │
│ (BatchNormalization)            │                        │               │
├─────────────────────────────────┼────────────────────────┼───────────────┤
│ conv2d_78 (Conv2D)              │ (None, 100, 100, 64)   │        36,928 │
├─────────────────────────────────┼────────────────────────┼───────────────┤
│ batch_normalization_78          │ (None, 100, 100, 64)   │           256 │
│ (BatchNormalization)            │                        │               │
├─────────────────────────────────┼────────────────────────┼───────────────┤
│ conv2d_79 (Conv2D)              │ (None, 100, 100, 64)   │        36,928 │
├─────────────────────────────────┼────────────────────────┼───────────────┤
│ batch_normalization_79          │ (None, 100, 100, 64)   │           256 │
│ (BatchNormalization)            │                        │               │
├─────────────────────────────────┼────────────────────────┼───────────────┤
│ conv2d_80 (Conv2D)              │ (None, 100, 100, 64)   │        36,928 │
├─────────────────────────────────┼────────────────────────┼───────────────┤
│ batch_normalization_80          │ (None, 100, 100, 64)   │           256 │
│ (BatchNormalization)            │                        │               │
├─────────────────────────────────┼────────────────────────┼───────────────┤
│ conv2d_81 (Conv2D)              │ (None, 100, 100, 64)   │        36,928 │
├─────────────────────────────────┼────────────────────────┼───────────────┤
│ batch_normalization_81          │ (None, 100, 100, 64)   │           256 │
│ (BatchNormalization)            │                        │               │
├─────────────────────────────────┼────────────────────────┼───────────────┤
│ conv2d_82 (Conv2D)              │ (None, 100, 100, 64)   │        36,928 │
├─────────────────────────────────┼────────────────────────┼───────────────┤
│ batch_normalization_82          │ (None, 100, 100, 64)   │           256 │
│ (BatchNormalization)            │                        │               │
├─────────────────────────────────┼────────────────────────┼───────────────┤
│ conv2d_83 (Conv2D)              │ (None, 100, 100, 64)   │        36,928 │
├─────────────────────────────────┼────────────────────────┼───────────────┤
│ batch_normalization_83          │ (None, 100, 100, 64)   │           256 │
│ (BatchNormalization)            │                        │               │
├─────────────────────────────────┼────────────────────────┼───────────────┤
│ conv2d_84 (Conv2D)              │ (None, 100, 100, 64)   │        36,928 │
├─────────────────────────────────┼────────────────────────┼───────────────┤
│ batch_normalization_84          │ (None, 100, 100, 64)   │           256 │
│ (BatchNormalization)            │                        │               │
├─────────────────────────────────┼────────────────────────┼───────────────┤
│ conv2d_85 (Conv2D)              │ (None, 100, 100, 64)   │        36,928 │
├─────────────────────────────────┼────────────────────────┼───────────────┤
│ batch_normalization_85          │ (None, 100, 100, 64)   │           256 │
│ (BatchNormalization)            │                        │               │
├─────────────────────────────────┼────────────────────────┼───────────────┤
│ conv2d_86 (Conv2D)              │ (None, 100, 100, 64)   │        36,928 │
├─────────────────────────────────┼────────────────────────┼───────────────┤
│ batch_normalization_86          │ (None, 100, 100, 64)   │           256 │
│ (BatchNormalization)            │                        │               │
├─────────────────────────────────┼────────────────────────┼───────────────┤
│ conv2d_87 (Conv2D)              │ (None, 100, 100, 64)   │        36,928 │
├─────────────────────────────────┼────────────────────────┼───────────────┤
│ batch_normalization_87          │ (None, 100, 100, 64)   │           256 │
│ (BatchNormalization)            │                        │               │
├─────────────────────────────────┼────────────────────────┼───────────────┤
│ conv2d_88 (Conv2D)              │ (None, 100, 100, 64)   │        36,928 │
├─────────────────────────────────┼────────────────────────┼───────────────┤
│ batch_normalization_88          │ (None, 100, 100, 64)   │           256 │
│ (BatchNormalization)            │                        │               │
├─────────────────────────────────┼────────────────────────┼───────────────┤
│ conv2d_89 (Conv2D)              │ (None, 100, 100, 64)   │        36,928 │
├─────────────────────────────────┼────────────────────────┼───────────────┤
│ batch_normalization_89          │ (None, 100, 100, 64)   │           256 │
│ (BatchNormalization)            │                        │               │
├─────────────────────────────────┼────────────────────────┼───────────────┤
│ conv2d_90 (Conv2D)              │ (None, 100, 100, 64)   │        36,928 │
├─────────────────────────────────┼────────────────────────┼───────────────┤
│ batch_normalization_90          │ (None, 100, 100, 64)   │           256 │
│ (BatchNormalization)            │                        │               │
├─────────────────────────────────┼────────────────────────┼───────────────┤
│ conv2d_91 (Conv2D)              │ (None, 100, 100, 64)   │        36,928 │
├─────────────────────────────────┼────────────────────────┼───────────────┤
│ batch_normalization_91          │ (None, 100, 100, 64)   │           256 │
│ (BatchNormalization)            │                        │               │
├─────────────────────────────────┼────────────────────────┼───────────────┤
│ conv2d_92 (Conv2D)              │ (None, 100, 100, 64)   │        36,928 │
├─────────────────────────────────┼────────────────────────┼───────────────┤
│ batch_normalization_92          │ (None, 100, 100, 64)   │           256 │
│ (BatchNormalization)            │                        │               │
├─────────────────────────────────┼────────────────────────┼───────────────┤
│ conv2d_93 (Conv2D)              │ (None, 100, 100, 64)   │        36,928 │
├─────────────────────────────────┼────────────────────────┼───────────────┤
│ batch_normalization_93          │ (None, 100, 100, 64)   │           256 │
│ (BatchNormalization)            │                        │               │
├─────────────────────────────────┼────────────────────────┼───────────────┤
│ conv2d_94 (Conv2D)              │ (None, 100, 100, 64)   │        36,928 │
├─────────────────────────────────┼────────────────────────┼───────────────┤
│ batch_normalization_94          │ (None, 100, 100, 64)   │           256 │
│ (BatchNormalization)            │                        │               │
├─────────────────────────────────┼────────────────────────┼───────────────┤
│ conv2d_95 (Conv2D)              │ (None, 100, 100, 64)   │        36,928 │
├─────────────────────────────────┼────────────────────────┼───────────────┤
│ batch_normalization_95          │ (None, 100, 100, 64)   │           256 │
│ (BatchNormalization)            │                        │               │
├─────────────────────────────────┼────────────────────────┼───────────────┤
│ conv2d_96 (Conv2D)              │ (None, 100, 100, 64)   │        36,928 │
├─────────────────────────────────┼────────────────────────┼───────────────┤
│ batch_normalization_96          │ (None, 100, 100, 64)   │           256 │
│ (BatchNormalization)            │                        │               │
├─────────────────────────────────┼────────────────────────┼───────────────┤
│ conv2d_97 (Conv2D)              │ (None, 100, 100, 64)   │        36,928 │
├─────────────────────────────────┼────────────────────────┼───────────────┤
│ batch_normalization_97          │ (None, 100, 100, 64)   │           256 │
│ (BatchNormalization)            │                        │               │
├─────────────────────────────────┼────────────────────────┼───────────────┤
│ conv2d_98 (Conv2D)              │ (None, 100, 100, 64)   │        36,928 │
├─────────────────────────────────┼────────────────────────┼───────────────┤
│ batch_normalization_98          │ (None, 100, 100, 64)   │           256 │
│ (BatchNormalization)            │                        │               │
├─────────────────────────────────┼────────────────────────┼───────────────┤
│ conv2d_99 (Conv2D)              │ (None, 100, 100, 64)   │        36,928 │
├─────────────────────────────────┼────────────────────────┼───────────────┤
│ batch_normalization_99          │ (None, 100, 100, 64)   │           256 │
│ (BatchNormalization)            │                        │               │
├─────────────────────────────────┼────────────────────────┼───────────────┤
│ conv2d_100 (Conv2D)             │ (None, 100, 100, 64)   │        36,928 │
├─────────────────────────────────┼────────────────────────┼───────────────┤
│ batch_normalization_100         │ (None, 100, 100, 64)   │           256 │
│ (BatchNormalization)            │                        │               │
├─────────────────────────────────┼────────────────────────┼───────────────┤
│ conv2d_101 (Conv2D)             │ (None, 100, 100, 64)   │        36,928 │
├─────────────────────────────────┼────────────────────────┼───────────────┤
│ batch_normalization_101         │ (None, 100, 100, 64)   │           256 │
│ (BatchNormalization)            │                        │               │
├─────────────────────────────────┼────────────────────────┼───────────────┤
│ conv2d_102 (Conv2D)             │ (None, 100, 100, 64)   │        36,928 │
├─────────────────────────────────┼────────────────────────┼───────────────┤
│ batch_normalization_102         │ (None, 100, 100, 64)   │           256 │
│ (BatchNormalization)            │                        │               │
├─────────────────────────────────┼────────────────────────┼───────────────┤
│ conv2d_103 (Conv2D)             │ (None, 100, 100, 64)   │        36,928 │
├─────────────────────────────────┼────────────────────────┼───────────────┤
│ batch_normalization_103         │ (None, 100, 100, 64)   │           256 │
│ (BatchNormalization)            │                        │               │
├─────────────────────────────────┼────────────────────────┼───────────────┤
│ conv2d_104 (Conv2D)             │ (None, 100, 100, 64)   │        36,928 │
├─────────────────────────────────┼────────────────────────┼───────────────┤
│ batch_normalization_104         │ (None, 100, 100, 64)   │           256 │
│ (BatchNormalization)            │                        │               │
├─────────────────────────────────┼────────────────────────┼───────────────┤
│ conv2d_105 (Conv2D)             │ (None, 100, 100, 64)   │        36,928 │
├─────────────────────────────────┼────────────────────────┼───────────────┤
│ batch_normalization_105         │ (None, 100, 100, 64)   │           256 │
│ (BatchNormalization)            │                        │               │
├─────────────────────────────────┼────────────────────────┼───────────────┤
│ conv2d_106 (Conv2D)             │ (None, 100, 100, 64)   │        36,928 │
├─────────────────────────────────┼────────────────────────┼───────────────┤
│ batch_normalization_106         │ (None, 100, 100, 64)   │           256 │
│ (BatchNormalization)            │                        │               │
├─────────────────────────────────┼────────────────────────┼───────────────┤
│ conv2d_107 (Conv2D)             │ (None, 100, 100, 64)   │        36,928 │
├─────────────────────────────────┼────────────────────────┼───────────────┤
│ batch_normalization_107         │ (None, 100, 100, 64)   │           256 │
│ (BatchNormalization)            │                        │               │
├─────────────────────────────────┼────────────────────────┼───────────────┤
│ conv2d_108 (Conv2D)             │ (None, 100, 100, 64)   │        36,928 │
├─────────────────────────────────┼────────────────────────┼───────────────┤
│ batch_normalization_108         │ (None, 100, 100, 64)   │           256 │
│ (BatchNormalization)            │                        │               │
├─────────────────────────────────┼────────────────────────┼───────────────┤
│ conv2d_109 (Conv2D)             │ (None, 100, 100, 64)   │        36,928 │
├─────────────────────────────────┼────────────────────────┼───────────────┤
│ batch_normalization_109         │ (None, 100, 100, 64)   │           256 │
│ (BatchNormalization)            │                        │               │
├─────────────────────────────────┼────────────────────────┼───────────────┤
│ conv2d_110 (Conv2D)             │ (None, 100, 100, 64)   │        36,928 │
├─────────────────────────────────┼────────────────────────┼───────────────┤
│ batch_normalization_110         │ (None, 100, 100, 64)   │           256 │
│ (BatchNormalization)            │                        │               │
├─────────────────────────────────┼────────────────────────┼───────────────┤
│ conv2d_111 (Conv2D)             │ (None, 100, 100, 1)    │           577 │
└─────────────────────────────────┴────────────────────────┴───────────────┘
 Total params: 4,092,865 (15.61 MB)
 Trainable params: 4,078,657 (15.56 MB)
 Non-trainable params: 14,208 (55.50 KB)
Train network ...
Loading data from database/generated_environments_chunk_1 ...
Split data into training and testing sets ...
Train model on current batch ...
Epoch 1/50
WARNING: All log messages before absl::InitializeLog() is called are written to STDERR
…
